{"modelTopology":{"class_name":"Sequential","config":{"name":"sequential_23","layers":[{"class_name":"LSTM","config":{"name":"lstm_LSTM23","trainable":true,"batch_input_shape":[null,48,4],"dtype":"float32","units":12,"activation":"relu","recurrent_activation":"hard_sigmoid","use_bias":true,"kernel_initializer":{"class_name":"VarianceScaling","config":{"scale":1,"mode":"fan_avg","distribution":"normal","seed":null}},"recurrent_initializer":{"class_name":"Orthogonal","config":{"gain":1,"seed":null}},"bias_initializer":{"class_name":"Zeros","config":{}},"unit_forget_bias":null,"kernel_regularizer":null,"recurrent_regularizer":null,"bias_regularizer":null,"activity_regularizer":null,"kernel_constraint":null,"recurrent_constraint":null,"bias_constraint":null,"dropout":0,"recurrent_dropout":0,"implementation":null,"return_sequences":false,"return_state":false,"go_backwards":false,"stateful":false,"unroll":false}},{"class_name":"Dense","config":{"units":4,"activation":"relu","use_bias":true,"kernel_initializer":{"class_name":"VarianceScaling","config":{"scale":1,"mode":"fan_avg","distribution":"normal","seed":null}},"bias_initializer":{"class_name":"Zeros","config":{}},"kernel_regularizer":null,"bias_regularizer":null,"activity_regularizer":null,"kernel_constraint":null,"bias_constraint":null,"name":"dense_Dense45","trainable":true}},{"class_name":"Dense","config":{"units":2,"activation":"relu","use_bias":true,"kernel_initializer":{"class_name":"VarianceScaling","config":{"scale":1,"mode":"fan_avg","distribution":"normal","seed":null}},"bias_initializer":{"class_name":"Zeros","config":{}},"kernel_regularizer":null,"bias_regularizer":null,"activity_regularizer":null,"kernel_constraint":null,"bias_constraint":null,"name":"dense_Dense46","trainable":true}}]},"keras_version":"tfjs-layers 3.3.0","backend":"tensor_flow.js"},"weightsManifest":[{"paths":["weights.bin"],"weights":[{"name":"lstm_LSTM23/kernel","shape":[4,48],"dtype":"float32"},{"name":"lstm_LSTM23/recurrent_kernel","shape":[12,48],"dtype":"float32"},{"name":"lstm_LSTM23/bias","shape":[48],"dtype":"float32"},{"name":"dense_Dense45/kernel","shape":[12,4],"dtype":"float32"},{"name":"dense_Dense45/bias","shape":[4],"dtype":"float32"},{"name":"dense_Dense46/kernel","shape":[4,2],"dtype":"float32"},{"name":"dense_Dense46/bias","shape":[2],"dtype":"float32"}]}],"format":"layers-model","generatedBy":"TensorFlow.js tfjs-layers v3.3.0","convertedBy":null}